models/example_model_connect_four.pth (torch_old, 907234 bytes, 64 tensors)

resblock1.bn1.weight f4 [4]
0.16409877 0.5461971 0.66110855 0.15277167
00000000: 8209 283e 93d3 0b3f 693e 293f 2d70 1c3e

resblock1.bn1.bias f4 [4]
0.6949806 0.3142406 0.34344172 0.1317891
00000000: 40ea 313f 25e4 a03e 98d7 af3e b9f3 063e

resblock1.bn1.running_mean f4 [4]
0.55810606 0.2148967 0.22699694 0.50821096
00000000: 0ae0 0e3f e10d 5c3e e371 683e 1d1a 023f

resblock1.bn1.running_var f4 [4]
0.24652709 0.16870311 0.17545436 0.24904652
00000000: 9971 7c3e 82c0 2c3e 4faa 333e 0d06 7f3e

resblock1.bn2.weight f4 [50]
0.0001709833 0.0022851357 0.003043987 0.13903585 0.16792412 0.21243532 0.20946209 0.17549118
0.16620232 0.17140849 0.19103453 0.20582856 0.13599028 0.13452397 0.17815939 0.13797165
0.027964884 0.15329708 0.20415674 0.09950974 0.16878985 0.19894221 0.19300658 0.15483059
0.17942768 0.2094043 0.10408041 0.17704628 0.11598419 0.23002924 0.112859376 0.17194246
0.26072633 0.1726542 0.18526512 0.1892527 0.17734267 0.14698634 0.103281915 0.13402641
0.20972325 0.16202268 0.15974626 0.0016043589 0.23071668 0.13241915 0.19921833 0.12091911
0.1980204 0.12034946
00000000: fb49 3339 37c2 153b a17d 473b 6a5f 0e3e
00000010: 4df4 2b3e a588 593e 3b7d 563e f6b3 333e
00000020: f130 2a3e b585 2f3e 8e9e 433e b9c4 523e
00000030: 0941 0b3e a7c0 093e 6a6f 363e 7148 0d3e
00000040: 9d16 e53c e9f9 1c3e 770e 513e c3cb cb3d
00000050: 3fd7 2c3e 82b7 4b3e 84a3 453e e98b 1e3e
00000060: e4bb 373e 156e 563e 1c28 d53d 9f4b 353e
00000070: 1e89 ed3d c98c 6b3e d122 e73d af11 303e
00000080: ec7d 853e 43cc 303e 24b6 3d3e 76cb 413e
00000090: 5199 353e 9683 163e 7885 d33d 383e 093e
000000a0: b1c1 563e 46e9 253e 8694 233e 5a49 d23a
000000b0: fe40 6c3e e398 073e e4ff 4b3e 70a4 f73d
000000c0: dcc5 4a3e c779 f63d

resblock1.bn2.bias f4 [50]
-0.0026732078 -0.026200827 -0.05891663 -0.08322186 -0.19290073 -0.15601426 -0.36948407 -0.20395407
-0.26046667 -0.15978731 -0.21196124 -0.33293125 -0.13086517 -0.082409285 -0.21477559 -0.069775485
0.024051271 -0.15475929 -0.24899742 -0.04373373 -0.20879364 -0.29641855 -0.33393085 -0.14699228
-0.07110732 -0.35162216 -0.019011125 -0.12508136 -0.050167207 -0.25737703 -0.047445163 -0.36258832
-0.32647 -0.10070474 -0.1876116 -0.257306 -0.2147131 -0.19317985 -0.034425613 -0.08252468
-0.3268173 -0.14868169 -0.09026149 -0.017543096 -0.21519113 -0.0859135 -0.14217316 -0.06697097
-0.18105474 -0.12640348
00000000: fc30 2fbb 1ea3 d6bc 9052 71bd 3970 aabd
00000010: c587 45be 34c2 1fbe 042d bdbe 56d9 50be
00000020: e35b 85be 499f 23be 5e0c 59be f775 aabe
00000030: 8501 06be 33c6 a8bd 22ee 5bbe 73e6 8ebd
00000040: 2c07 c53c 3879 1ebe 2ef9 7ebe 2422 33bd
00000050: 00ce 55be 2cc4 97be fcf8 aabe 2585 16be
00000060: b7a0 91bd d207 b4be 38bd 9bbc 5415 00be
00000070: 217c 4dbd ecc6 83be dc55 42bd 2da5 b9be
00000080: 1327 a7be 493e cebd 411d 40be 9dbd 83be
00000090: c0dd 5bbe f0d0 45be df01 0dbd b302 a9bd
000000a0: 9954 a7be 0340 18be 04db b8bd 8ab6 8fbc
000000b0: 105b 5cbe 6bf3 afbd d795 11be 1328 89bd
000000c0: 6a66 39be ea6f 01be

resblock1.bn2.running_mean f4 [50]
0.013437032 0.086422175 0.05331756 -0.54073 0.061196946 -0.48731896 0.14008902 0.018979343
1.2496252 -0.0451684 -0.27802363 -0.5717201 0.059274636 0.37352198 -0.18149945 0.048685342
0.017317882 -0.2818817 0.31342852 0.22704911 -0.54834306 -0.32723567 -0.22070567 0.6496272
-0.50762105 0.24613541 -0.73605156 -0.8529424 0.517306 0.13143584 0.046332616 0.2959212
1.1058708 -0.8023264 -0.90207624 1.1045251 0.3759042 -0.46577808 -0.37558872 -0.72136176
1.002909 -0.7584669 -0.5099354 0.105379924 -0.6904817 -0.78611314 -0.6515962 0.022196295
-0.21704434 -0.19864401
00000000: ff26 5c3c 1cfe b03d 8463 5a3d 486d 0abf
00000010: a6a9 7a3d df81 f9be 7f73 0f3e 917a 9b3c
00000020: b8f3 9f3f 8002 39bd 1d59 8ebe 405c 12bf
00000030: f6c9 723d 463e bf3e feda 39be 486a 473d
00000040: 3bde 8d3c cc52 90be b479 a03e 907f 683e
00000050: 3660 0cbf 6f8b a7be ab00 62be f84d 263f
00000060: 74f3 01bf ec0a 7c3e e06d 3cbf 6f5a 5abf
00000070: 2b6e 043f 1e97 063e 45c7 3d3d fc82 973e
00000080: 2d8d 8d3f 4365 4dbf 78ee 66bf 1461 8d3f
00000090: 8476 c03e 777a eebe 2a4d c0be 2aab 38bf
000000a0: 525f 803f e32a 42bf 208b 02bf 6ed1 d73d
000000b0: 69c3 30bf b63e 49bf 02cf 26bf 01d5 b53c
000000c0: df40 5ebe 5669 4bbe

resblock1.bn2.running_var f4 [50]
0.00033176152 0.002817052 0.008877064 0.45968717 0.5054513 0.5933741 0.46549255 0.4793987
0.62506914 0.5362116 0.5040498 0.27689192 0.35192457 0.5195521 0.62734795 0.54909
0.00082336675 0.39483106 0.61737496 0.5818446 0.26930052 0.3417673 0.2951331 0.6679323
0.9942819 0.37958357 0.21098712 0.47896627 0.5226614 0.7168831 0.5863243 0.35361388
0.9183605 0.7278708 0.43212128 0.7021378 0.4820474 0.42037654 0.4412747 0.6839731
0.6316556 0.51941943 0.8246032 0.011776081 0.7282897 0.5860917 0.90863246 0.69759816
0.7344635 0.22986901
00000000: 47f0 ad39 4a9e 383b 1b71 113c 1e5c eb3e
00000010: 4265 013f 5de7 173f 0a55 ee3e bf73 f53e
00000020: 8804 203f 2a45 093f 6809 013f c7c4 8d3e
00000030: 752f b43e 5e01 053f e099 203f 2a91 0c3f
00000040: 35d7 573a 4c27 ca3e 490c 1e3f c5f3 143f
00000050: c2e1 893e 20fc ae3e b01b 973e 9cfd 2a3f
00000060: 4289 7e3f c758 c23e 020d 583e 113b f53e
00000070: 23cd 053f a785 373f 5919 163f e10c b53e
00000080: ac19 6b3f be55 3a3f 003f dd3e 4ebf 333f
00000090: ebce f63e 983b d73e c2ee e13e dc18 2f3f
000000a0: 2eb4 213f acf8 043f 3219 533f 77f0 403c
000000b0: 3271 3a3f 1b0a 163f 239c 683f cb95 323f
000000c0: cd05 3c3f c862 6b3e

resblock1.conv1.weight f4 [50, 4, 3, 3]
-7.0924514e-05 0.0008590604 0.00020970083 -0.0001745301 4.362318e-06 -0.00044992776 -0.00082064467 0.00040110748
-0.00041634863 -0.00057230296 0.005272474 0.014299927 0.0020491327 0.00033432554 -0.0010650095 0.0015482446
-0.003642041 0.00047712465 0.011892945 -0.002396789 -0.006187032 0.00045805378 -0.0010047279 0.0013101957
0.009192013 0.011353356 0.010118914 4.6306952e-05 0.00010419009 0.00010553168 8.442489e-05 0.00014874457
9.815663e-05 0.00014178808 0.0002245674 0.00015593684 0.020042742 0.007567747 0.0058228183 0.011882848
-0.0003888398 -0.0027724816 0.02579215 0.009567577 0.00792427 -0.011220397 0.0061709024 0.010941173
-0.012386855 0.020142846 0.022132542 0.008232752 0.015437898 0.02538512 0.02860552 0.023777835
0.024552757 0.012801369 -0.020325014 -0.00052185747 -0.00028451358 0.00037646742 0.01038607 -0.0007497538
-0.0026354152 -0.0019140056 -0.0024375163 -0.005590589 -0.005223449 -0.000411081 -0.003165471 -0.0035115287
-0.0067983093 -0.009833612 0.009919227 0.010988695 0.0077613094 0.020971725 0.0331628 0.009578801
0.028468654 -0.017122243 -0.0325562 0.064857095 0.0047298074 0.043566763 0.023179395 -0.029475603
-0.0014701033 0.0045828233 0.03146095 0.009179823 -0.070059046 0.019251961 -0.055616572 -0.0034460467
0.02772438 -0.00067297334 0.020766025 -0.013655618 -0.017717296 -0.0035214673 -0.011911745 -0.01918501
-0.00659198 -0.0032017322 -0.010734605 -8.499584e-05 0.18245427 0.12504925 -0.09479413 0.06459094
0.08823746 0.0313958 -0.04645878 -0.10501588 -0.47364005 0.0205496 -0.20465308 0.13509306
0.15208356 0.079397336 -0.06981129 0.07639801 -0.01691487 -0.0998875 -0.37304202 -0.24601203
-0.06586619 0.047773905 -0.44427633 -0.46920198 -0.22265643 0.021972647 0.4354378 0.08061605
0.0651192 0.1304664 -0.028193427 -0.071845666 0.020232085 -0.12450867 -0.10160468 -0.05497683
0.15772474 0.070674755 -0.027724253 -0.029923094 -0.021322185 -0.082956776 0.012997563 0.05294273
-0.10616045 -0.05596527 0.2527669 -0.024459597 -0.36166248 0.23185472 0.06932889 -0.05723723
0.16081752 -0.12521534 -0.45959663 -0.5563834 0.055560686 0.3397984 -0.052965995 -0.0021891163
0.0691833 -0.28702572 0.31273976 0.058603264 0.1309893 0.08668822 0.23279692 0.2951709
0.1661192 0.2543053 0.31666705 0.18969353 0.11667744 0.4348832 -0.05470755 -0.26961753
0.009364105 -0.32264778 -0.08861437 0.104727976 -0.044037137 -0.21181355 0.359276 -0.13484107
-0.057178713 0.2659892 -0.22176185 0.12113696 0.5951558 -0.11382056 0.11017415 -0.6231844
0.125766 -0.2269995 -0.59290177 -0.042784456 -0.16285154 -0.21819003 -0.030130673 0.17344032
0.08888863 -0.088998124 0.101906724 -0.0647212 -0.22931515 0.061839476 -0.093598396 -0.2589303
0.02543415 0.07838197 0.05013787 -0.032080114 0.055371925 -0.06693429 -0.027376954 0.14303005
-0.01412511 -0.010368175 0.004801674 -0.28200933 0.30598712 -0.05915647 0.014588535 -0.15976399
0.05103402 0.08984151 0.01565807 -0.101835445 0.60548943 -0.40284488 -0.20769332 0.009837921
0.5183496 -0.22467184 0.097766936 0.040881675 0.08099867 0.043587 -0.06516037 -0.019610673
-0.0670769 -0.052049223 -0.017307458 -0.063602194 -0.3693754 -0.027663093 -0.1570822 -0.116823204
00000000: 4fbd 94b8 9132 613a 23e3 5b39 1102 37b9
00000010: 0760 9236 48e4 ebb9 8820 57ba bc4b d239
00000020: 5e49 dab9 9a06 16ba b8c4 ac3b 3e4a 6a3c
00000030: be4a 063b 6a48 af39 ca97 8bba 78ee ca3a
00000040: 4faf 6ebb 9626 fa39 a0da 423c 7213 1dbb
00000050: 96bc cabb f026 f039 13b1 83ba dfba ab3a
00000060: 199a 163c 6d03 3a3c cdc9 253c b639 4238
00000070: a180 da38 e450 dd38 450d b138 51f8 1b39
00000080: 71d9 cd38 f3ac 1439 da79 6b39 fa82 2339
00000090: ad30 a43c ddfa f73b 57cd be3b 47b0 423c
000000a0: 32dd cbb9 86b2 35bb 0f4a d33c 54c1 1c3c
000000b0: ccd4 013c c2d5 37bc 4835 ca3b 9b42 333c
000000c0: 3cf2 4abc 9c02 a53c 4e4f b53c aae2 063c
000000d0: 3def 7c3c 75f4 cf3c 2056 ea3c bcc9 c23c
000000e0: dd22 c93c d5bc 513c a580 a6bc 43cd 08ba
000000f0: c42a 95b9 9a60 c539 562a 2a3c 208b 44ba
00000100: eeb6 2cbb 5fdf faba bdbe 1fbb 4231 b7bb
00000110: 7729 abbb 5c86 d7b9 ca73 4fbb ad21 66bb
00000120: 5ac4 debb 281d 21bc 4184 223c ed09 343c
00000130: 9552 fe3b e5cc ab3c b7d5 073d 67f0 1c3c
00000140: 1837 e93c f243 8cbc a659 05bd ccd3 843d
00000150: 80fc 9a3b 1073 323d b7e2 bd3c d276 f1bc
00000160: 7bb0 c0ba 822b 963b 32dd 003d f866 163c
00000170: 1e7b 8fbd 4ab6 9d3c 34ce 63bd 12d7 61bb
00000180: 3d1e e33c 7a6a 30ba 831d aa3c d0bb 5fbc
00000190: dd23 91bc 6bc8 66bb 7b29 43bc e229 9dbc
000001a0: 8901 d8bb 27d4 51bb 32e0 2fbc cb3f b2b8
000001b0: 4bd5 3a3e e90c 003e 6d23 c2bd 4148 843d
000001c0: d7b5 b43d e298 003d 904b 3ebd 9112 d7bd
000001d0: f380 f2be a257 a83c 9490 51be d655 0a3e
000001e0: cbbb 1b3e 129b a23d 39f9 8ebd 8f76 9c3d
000001f0: 0e91 8abc d191 ccbd 5dff bebe 94ea 7bbe
00000200: dae4 86bd 92ae 433d 3078 e3be 3e3b f0be
00000210: 0c00 64be fbff b33c b4f1 de3e 071a a53d
00000220: 375d 853d fc98 053e e7f5 e6bc d223 93bd
00000230: c2bd a53c 67fe febd 1d16 d0bd 622f 61bd
00000240: 9882 213e edbd 903d f91d e3bc 4721 f5bc
00000250: ddab aebc 3ee5 a9bd bbf3 543c 7ada 583d
00000260: a66a d9bd d73b 65bd aa6a 813e 7e5f c8bc
00000270: d32b b9be 536b 6d3e 4efc 8d3d 9671 6abd
00000280: 59ad 243e 7338 00be 4050 ebbe 246f 0ebf
00000290: 9a93 633d 0efa ad3e dff2 58bd 4777 0fbb
000002a0: f9af 8d3d 09f5 92be 6d1f a03e fa09 703d
000002b0: 0f22 063e 9889 b13d 5162 6e3e a420 973e
000002c0: 271b 2a3e 4e34 823e 2f22 a23e 053f 423e
000002d0: 95f4 ee3d 03a9 de3e 0615 60bd 4f0b 8abe
000002e0: e76b 193c 1732 a5be 737b b5bd 9f7b d63d
000002f0: 4960 34bd a7e5 58be 06f3 b73e c713 0abe
00000300: 3a34 6abd bd2f 883e 8a15 63be a816 f83d
00000310: 215c 183f c11a e9bd fca2 e13d 0389 1fbf
00000320: cdc8 003e 8f72 68be 69c8 17bf c13e 2fbd
00000330: 8ec2 26be 356d 5fbe 9ad4 f6bc 579a 313e
00000340: 3e0b b63d a644 b6bd 79b4 d03d 8c8c 84bd
00000350: 97d1 6abe 644b 7d3d 84b0 bfbd 8392 84be
00000360: 475b d03c ba86 a03d 5e5d 4d3d 7066 03bd
00000370: accd 623d d814 89bd a245 e0bc 7876 123e
00000380: 016d 67bc 47df 29bc 5c57 9d3b 8763 90be
00000390: 58aa 9c3e 0e4e 72bd c004 6f3c 2c99 23be
000003a0: 0c09 513d d3fe b73d 5a45 803c 1a8f d0bd
000003b0: 5b01 1b3f af41 cebe 8fad 54be 3b2f 213c
000003c0: 8fb2 043f 6010 66be 083a c83d 8b73 273d
000003d0: a1e2 a53d 4888 323d cd72 85bd 90a6 a0bc
000003e0: 9d5f 89bd 9131 55bd 5fc8 8dbc de41 82bd
000003f0: c61e bdbe b69d e2bc 28da 20be 0141 efbd

resblock1.conv1.bias f4 [50]
6.5831324e-10 -9.594589e-09 5.030897e-08 6.702573e-05 3.4064797e-05 0.00016789514 -9.069853e-05 -9.665842e-05
-8.055432e-05 0.00012630787 -0.00015508708 -8.2050676e-05 2.9836689e-05 0.0001700597 -0.00013542539 -0.00010125097
-0.00014520905 -5.7398487e-05 0.00010372783 0.00010892667 4.057406e-05 0.00012415861 -0.00014826172 0.00010922521
-0.00010985309 -4.750581e-05 0.0003430237 -0.00017184795 -0.00016483832 7.4573996e-05 -0.00024400755 -0.00014801376
0.00012004266 -8.386636e-05 -9.79561e-06 -6.3182284e-05 -0.00023936215 -7.12462e-05 -0.00021100379 -0.0001236142
-0.00019027713 0.00019007188 -0.0003041785 5.7735814e-08 5.1796537e-06 -0.00012708269 -0.0001430654 -3.100168e-05
-0.0002048447 0.00017235808
00000000: adf4 3430 73d5 24b2 4c13 5833 2a90 8c38
00000010: cce0 0e38 020d 3039 6735 beb8 18b5 cab8
00000020: 45ef a8b8 8371 0439 df9e 22b9 9f12 acb8
00000030: cd49 fa37 0e52 3239 fa00 0eb9 b356 d4b8
00000040: 4243 18b9 28bf 70b8 7488 d938 906f e438
00000050: 112e 2a38 9330 0239 b476 1bb9 d70f e538
00000060: ee60 e6b8 fa40 47b8 ddd7 b339 1532 34b9
00000070: 73d8 2cb9 9c64 9c38 47dc 7fb9 2434 1bb9
00000080: 6abf fb38 69e1 afb8 d357 24b7 bb80 84b8
00000090: 4afd 7ab9 036a 95b8 e640 5db9 6f9e 01b9
000000a0: 2185 47b9 084e 4739 267a 9fb9 33f9 7733
000000b0: e3cc ad36 8041 05b9 d303 16b9 cd07 02b8
000000c0: 95cb 56b9 05bb 3439

resblock1.conv2.weight f4 [50, 50, 3, 3]
0.00017837882 2.7413033e-05 -0.000104230814 -6.0918715e-05 6.0167964e-05 -8.303704e-05 -0.0002302677 -0.00028060432
-0.00039173287 0.0021799256 0.00036374584 0.0006234917 0.0018334071 0.00047789022 6.717353e-05 -0.00068886986
-0.0026221653 -0.0019387276 0.0016475631 -0.0026108744 -0.0012310141 -0.0041260147 0.0041036266 -0.01506999
0.00790416 -0.017824633 -0.018119413 -0.12756877 0.14646396 -0.05612748 -0.035201527 -0.008570701
-0.04108871 -0.015021655 0.057670493 -0.027705861 0.060540263 -0.10625494 0.061178084 0.04495793
0.09308407 0.12124957 0.14078994 -0.035338376 -0.048403304 0.03075317 -0.25405067 -0.13789947
-0.08924273 0.109241694 -0.001111073 0.01729191 0.06892497 -0.09890265 0.05577922 -0.15858045
0.22515625 -0.006452691 0.013099024 -0.19924906 -0.047854736 -0.015766436 0.09553547 -0.106121175
-0.3194446 -0.058372308 -0.06656043 -0.025537305 0.08480895 0.043482322 0.04295475 0.09198249
0.04815061 0.005035583 -0.34717545 0.04691009 0.14819075 -0.005546478 0.0045170896 -0.0041580605
-0.2558192 0.11217517 -0.16469029 -0.14919181 -0.0707886 -0.038176093 -0.01382087 0.028785268
-0.028889557 -0.1833433 -0.014006657 -0.024663225 -0.07712248 -0.017524563 0.21510698 -0.16508064
0.08691763 0.12858963 0.189945 -0.030308878 0.034463666 -0.067645825 -0.123524055 -0.05004399
0.014054135 0.112379104 0.12825918 0.007563774 -0.12303991 0.011421658 -0.0821537 0.040961396
-0.14829302 0.11191281 -0.16702047 0.019682143 -0.026256783 0.16627897 0.07267559 -0.06373109
-0.049376015 -0.045465935 0.11514831 -0.07233503 0.08598012 -0.06309976 -0.05628643 -0.14472549
-0.2174956 0.020075826 -0.07323943 -0.024245767 -0.10966609 -0.12807943 2.2134533e-05 -0.048710015
0.1216098 0.103792764 0.011528611 -0.111747704 0.17310989 -0.067260355 -0.03303605 -0.011157402
-0.0041263215 -0.012223291 -0.017635923 -0.0029341693 -0.019576015 0.0042688753 0.013765189 -0.021590656
0.011204 -0.10179178 -0.06403909 -0.053391784 -0.115476616 0.033503313 -0.09853731 -0.1781216
-0.1620773 0.14419973 0.04720881 -0.025091905 -0.106412224 0.09827138 -0.08962562 0.0903015
0.08352392 -0.068394884 -0.08202747 -0.077394485 -0.13711429 -0.059279546 -0.061899148 0.037775986
0.36538175 -0.18235883 0.13813134 0.026903326 0.042783458 -0.03579892 -0.022120813 -0.001225224
0.13850096 -0.06281006 0.0637929 0.14965662 -0.154102 0.104596674 0.14242612 -0.02596009
-0.0065175937 0.17716874 -0.06875583 0.08170345 -0.039262887 -0.01788866 0.069767684 -0.09646039
0.074926525 -0.023808246 -0.22951461 -0.014964989 -0.03419187 -0.051201034 -0.04589331 -0.028740993
-0.0089868745 -0.060071565 -0.13321343 0.12224204 -0.13085547 -0.05591969 0.08903033 -0.04875278
-0.20860979 -0.049257267 0.1021089 -0.21908286 -0.023367267 -0.14891571 -0.072669916 0.122574255
-0.13156264 -0.1287895 0.0683171 0.010567069 0.054272972 0.06727108 0.17176865 -0.082372405
-0.12917896 -0.07919333 -0.26285565 -0.08619221 -0.02481291 -0.20964666 0.08262665 0.09541188
-0.26363543 -0.18766282 -0.007934595 -0.123367585 0.06603526 0.19646195 -0.3493208 -0.0630503
0.16237855 -0.111195035 0.053176604 0.06978134 -0.1935465 -0.28196585 -0.0080144545 0.17566378
00000000: 330b 3b39 0af5 e537 7e96 dab8 f982 7fb8
00000010: dc5c 7c38 2c24 aeb8 0474 71b9 131e 93b9
00000020: 7f61 cdb9 15dd 0e3b 24b5 be39 d271 233a
00000030: ef4e f03a 578d fa39 84df 8c38 4695 34ba
00000040: a2d8 2bbb e71c feba 0bf3 d73a 341b 2bbb
00000050: fb59 a1ba 8533 87bb b777 863b 1fe8 76bc
00000060: 7380 013c f704 92bc 2a6f 94bc 63a1 02be
00000070: a6fa 153e eee5 65bd 7a2f 10bd 206c 0cbc
00000080: a34c 28bd 631d 76bc e537 6c3d 67f7 e2bc
00000090: 11f9 773d 319c d9bd df95 7a3d ce25 383d
000000a0: dca2 be3d b251 f83d 3d2b 103e f9be 10bd
000000b0: 8b42 46bd 12ee fb3c ee12 82be 8535 0dbe
000000c0: e4c4 b6bd 1cba df3d 6ca1 91ba c3a7 8d3c
000000d0: 8928 8d3d 798d cabd c078 643d ea62 22be
000000e0: 5c8f 663e 1871 d3bb 4a9d 563c f207 4cbe
000000f0: 5403 44bd 9d28 81bc 1aa8 c33d 0f56 d9bd
00000100: 3e8e a3be cd17 6fbd d650 88bd 9c33 d1bc
00000110: 51b0 ad3d 851a 323d 52f1 2f3d 5161 bc3d
00000120: 9339 453d 8801 a53b fbc0 b1be cb24 403d
00000130: 51bf 173e 3bbf b5bb 1804 943b 5740 88bb
00000140: bcfa 82be 18bc e53d 92a4 28be bdc5 18be
00000150: 9df9 90bd 895e 1cbd ee70 62bc 15cf eb3c
00000160: cba9 ecbc 59be 3bbe 2d7c 65bc 880a cabc
00000170: 64f2 9dbd ac8f 8fbc 0145 5c3e e60a 29be
00000180: df01 b23d 00ad 033e f180 423e 534a f8bc
00000190: c629 0d3d e589 8abd 2efa fcbd edfa 4cbd
000001a0: 5143 663c 0427 e63d 6056 033e 89d9 f73b
000001b0: 59fc fbbd e821 3b3c 3340 a8bd 23c7 273d
000001c0: 20da 17be 8b32 e53d 6a07 2bbe 723c a13c
000001d0: 7718 d7bc 0945 2a3e f1d6 943d 7285 82bd
000001e0: 813e 4abd 7d3a 3abd e1d2 eb3d 6324 94bd
000001f0: 5816 b03d 723a 81bd 9a8c 66bd eb32 14be
00000200: 2bb7 5ebe 0f76 a43c 8efe 95bd 0f9f c6bc
00000210: 9d98 e0bd 4127 03be 8cad b937 2784 47bd
00000220: 8f0e f93d 4d91 d43d 80e2 3c3c fbdb e4bd
00000230: b843 313e ccbf 89bd cf50 07bd 89cd 36bc
00000240: 1836 87bb 3344 48bc 3679 90bc 314b 40bb
00000250: e15d a0bc ece1 8b3b 6387 613c e3de b0bc
00000260: fb90 373c 3578 d0bd ed26 83bd 58b1 5abd
00000270: 017f ecbd c53a 093d eecd c9bd 8265 36be
00000280: 97f7 25be 18a9 133e 065e 413d 8a8d cdbc
00000290: a7ee d9bd 8142 c93d a38d b7bd feef b83d
000002a0: 970e ab3d 9e12 8cbd 05fe a7bd 0081 9ebd
000002b0: b067 0cbe 1ccf 72bd f689 7dbd feba 1a3d
000002c0: 5113 bb3e 46bc 3abe 4d72 0d3e 5d64 dc3c
000002d0: b53d 2f3d e3a1 12bd b536 b5bc b297 a0ba
000002e0: 32d3 0d3e 90a2 80bd daa5 823d 963f 193e
000002f0: eacc 1dbe c836 d63d 27d8 113e 41aa d4bc
00000300: 8a91 d5bb b96b 353e dbcf 8cbd 2354 a73d
00000310: 1fd2 20bd 3d8b 92bc 5ce2 8e3d 068d c5bd
00000320: 1473 993d 8309 c3bc e105 6bbe b72f 75bc
00000330: c60c 0cbd 2db8 51bd a0fa 3bbd 3b72 ebbc
00000340: af3d 13bc 9a0d 76bd 1a69 08be 095a fa3d
00000350: fafe 05be 0b0c 65bd 8955 b63d ffb0 47bd
00000360: ce9d 55be fdc1 49bd 791e d13d 4257 60be
00000370: b66c bfbc 5c7d 18be f7d3 94bd 3608 fb3d
00000380: 5bb8 06be 65e1 03be d6e9 8b3d 8021 2d3c
00000390: 564d 5e3d 6cc5 893d 1fe4 2f3e ddb2 a8bd
000003a0: 7d47 04be 1d30 a2bd 0495 86be 8b85 b0bd
000003b0: 7244 cbbc 9dad 56be 2938 a93d 4e67 c33d
000003c0: 39fb 86be af2a 40be 1b00 02bc 25a8 fcbd
000003d0: 7f3d 873d 522d 493e 2dda b2be 8420 81bd
000003e0: 9046 263e 39ba e3bd b6cf 593d 85e9 8e3d
000003f0: 0e31 46be d45d 90be 0f4f 03bc 35e1 333e

resblock1.conv2.bias f4 [50]
0.040029068 0.0044995905 0.030430065 -0.005864683 -0.0026616936 -0.04320065 -0.009460636 -0.027068216
-0.011294247 -0.0006555013 -0.03190973 -0.016494462 -0.016899476 0.01237933 -0.037666164 0.04405582
0.023083586 -0.012185632 0.01652237 0.03783195 -0.033728044 0.013849759 0.033173084 0.026152587
-0.0047228364 -0.028629437 -0.002162773 -0.018638387 -0.0076315207 -0.11220941 0.031490456 -0.01637705
0.026478121 -0.012462937 -0.03366227 0.02260699 -0.026648177 0.038518973 0.025388084 0.008273299
0.01625951 -0.02611704 -0.020628784 -0.01577634 -0.02425148 0.004332602 -0.016679568 0.012566714
0.016350491 -0.012082749
00000000: 85f5 233d 4d71 933b 7948 f93c 872c c0bb
00000010: cf6f 2ebb 2af3 30bd c900 1bbc 2abe ddbc
00000020: 810b 39bc f3d5 2bba c7b3 02bd 651f 87bc
00000030: c570 8abc acd2 4a3c d647 1abd e073 343d
00000040: ca19 bd3c 3fa6 47bc ec59 873c adf5 1a3d
00000050: 6b26 0abd 19ea 623c 80e0 073d f33d d63c
00000060: 06c2 9abb 4888 eabc 4fbd 0dbb 88af 98bc
00000070: d611 fabb 0cce e5bd 23fc 003d 2a29 86bc
00000080: a5e8 d83c 5931 4cbc 73e1 09bd 4b32 b93c
00000090: 474d dabc 12c6 1d3d acfa cf3c bb8c 073c
000000a0: aa32 853c 67f3 d5bc b2fd a8bc 623d 81bc
000000b0: 0aab c6bc 80f8 8d3b 97a3 88bc 9ee4 4d3c
000000c0: 77f1 853c b9f6 45bc

resblock1.conv3.weight f4 [50, 4, 1, 1]
-0.14993149 0.16590373 -0.1650762 -0.08978686 -0.11903013 0.2033727 0.11221173 0.2304232
-0.13948798 -0.14395216 -0.22312646 0.026885258 0.035853434 -0.1498848 0.03466844 0.045848593
-0.017592303 -0.017885942 -0.049829684 0.06809377 0.20136538 0.11997836 0.18148941 0.053824708
0.10198255 0.014920416 0.09630878 -0.064813636 0.38914287 -0.24292648 -0.1538942 -0.10060279
0.07923672 -0.2147942 -0.1238588 0.0699733 -0.041390315 -0.053458225 -0.3687686 0.104815185
0.15257935 0.14221951 0.17787582 0.115239404 0.15865727 -0.078127965 0.14259015 0.0038615984
0.087349154 -0.097825654 -0.07646289 0.1272489 0.10160722 -0.1463686 0.36032358 -0.31584474
0.19839787 0.30087057 -0.07982136 0.117413394 -0.20695631 0.05284508 -0.20102456 -0.028167095
-0.045801982 -0.19001083 0.038938027 -0.067780495 0.061407108 -0.052800503 -0.21958344 -0.025748525
0.005779667 0.14321524 -0.18734042 -0.17130898 -0.17110471 0.42291093 -0.123066664 -0.1934049
0.2274253 0.21337087 0.055336997 -0.04986157 0.0016059651 -0.03243721 0.009161262 -0.014457786
-0.31795794 0.3737178 0.3577446 0.03267873 -0.07522853 -0.24854709 0.12119061 -0.023176927
0.010680495 -0.09349297 0.10758078 0.077148095 0.1978899 -0.05139266 -0.21718192 0.10871206
-0.049486082 0.05868721 -0.16765128 0.2264526 0.19256558 -0.20489001 -0.0028676535 0.05791308
0.15086067 0.1171482 -0.06972834 -0.08020313 1.23475 -0.7167725 -0.7861048 -0.0031948355
-0.18416417 -0.2717987 0.04357821 -0.05587948 0.23402861 -0.011036662 0.070970826 -0.035687573
-0.1569082 0.054395612 -0.19381985 0.14245805 0.17554922 -0.14507218 0.054952607 -0.11768214
0.03523126 -0.10584654 0.05266755 0.15706164 -0.112926915 -0.14691284 0.30087897 0.03733285
0.20330821 -0.044623908 0.020274432 0.019982636 -0.16673413 -0.13779749 -0.25405174 -0.081948236
0.043714665 -0.102355786 0.28839362 -0.22399133 -0.013043777 -0.13733722 0.11967393 0.013427534
-0.015157234 0.17746414 0.122395374 -0.29651007 0.2130421 0.10773101 0.12576756 -0.030587072
-0.045544624 0.39502487 -0.23849528 0.3681806 0.1155757 0.19312336 -0.056854855 -0.045417044
0.15322718 0.18297105 0.016336154 0.03950921 0.0010333018 0.19682147 -0.040196117 0.0002121421
-0.008616379 -0.34495345 0.24170767 0.296557 -0.089254536 0.043537833 -0.09791433 -0.045435622
0.008192015 0.2549469 0.095991135 -0.13009578 0.074048914 -0.032768823 0.26023313 -0.03437436
00000000: a487 19be abe2 293e bc09 29be 2ce2 b7bd
00000010: 12c6 f3bd ef40 503e 43cf e53d 0ff4 6b3e
00000020: f0d5 0ebe 3268 13be 437b 64be 793e dc3c
00000030: 0ddb 123d 677b 19be 7f00 0e3d bccb 3b3d
00000040: bc1d 90bc 8a85 92bc 361a 4cbd bf74 8b3d
00000050: ba32 4e3e 37b7 f53d 5cd8 393e 4c77 5c3d
00000060: 3adc d03d c374 743c 8a3d c53d 03bd 84bd
00000070: bc3d c73e b8c1 78be 7196 1dbe d608 cebd
00000080: dd46 a23d 03f3 5bbe afa9 fdbd 294e 8f3d
00000090: e488 29bd 03f7 5abd 3dcf bcbe 58a9 d63d
000000a0: c33d 1c3e fea1 113e 1425 363e a302 ec3d
000000b0: 0d77 223e 8e01 a0bd 2703 123e df12 7d3b
000000c0: 1de4 b23d d158 c8bd 9398 9cbd 894d 023e
000000d0: 7217 d03d a6e1 15be 557c b83e 67b6 a1be
000000e0: d028 4b3e b50b 9a3e 6279 a3bd 6f76 f03d
000000f0: 5bec 53be 1574 583d 62d9 4dbe aebe e6bc
00000100: dc9a 3bbd 3392 42be 7b7d 1f3d 80d0 8abd
00000110: 0586 7b3d 5745 58bd 7bda 60be 92ee d2bc
00000120: 5c63 bd3b 04a7 123e 2bd6 3fbe 9f6b 2fbe
00000130: 1336 2fbe c887 d83e 600a fcbd ef0b 46be
00000140: 2ee2 683e e57d 5a3e 0ca9 623d a53b 4cbd
00000150: 3f7f d23a e1dc 04bd 1e19 163c 5ae0 6cbc
00000160: 62cb a2be f157 bf3e 4d2a b73e 22da 053d
00000170: 6a11 9abd 2183 7ebe c832 f83d 8add bdbc
00000180: 3efd 2e3c 3e79 bfbd 5053 dc3d d2ff 9d3d
00000190: a6a3 4a3e 1c81 52bd f064 5ebe 6ea4 de3d
000001a0: ebb1 4abd 0062 703d c7ac 2bbe 31e3 673e
000001b0: e92f 453e b0ce 51be 3eef 3bbb 4436 6d3d
000001c0: 387b 1a3e 65eb ef3d bbcd 8ebd 8a41 a4bd
000001d0: 4a0c 9e3f 677e 37bf 2a3e 49bf 7260 51bb
000001e0: 8895 3cbe 3329 8bbe 117f 323d e2e1 64bd
000001f0: 32a5 6f3e 1ed3 34bc 2759 913d 222d 12bd
00000200: 8bac 20be efcd 5e3d b678 46be 86e0 113e
00000210: 2dc3 333e cd8d 14be fc15 613d 5503 f1bd
00000220: a74e 103d 12c6 d8bd eeb9 573d c4d4 203e
00000230: 3a46 e7bd 5270 16be cf0c 9a3e 55ea 183d
00000240: 0730 503e 8fc7 36bd 9116 a63c a0b2 a33c
00000250: 5abc 2abe c91a 0dbe 1213 82be 7ad4 a7bd
00000260: 260e 333d e99f d1bd 54a8 933e fc5d 65be
00000270: 91b5 55bc 21a2 0cbe 9b17 f53d 29ff 5b3c
00000280: 0c56 78bc 29b9 353e 6daa fa3d 2bd0 97be
00000290: b527 5a3e 13a2 dc3d 36c9 003e bd91 fabc
000002a0: 008d 3abd b340 ca3e 1b38 74be 2b82 bc3e
000002b0: f4b2 ec3d 21c2 453e a3e0 68bd 3907 3abd
000002c0: 96e7 1c3e c35c 3b3e 66d3 853c 69d4 213d
000002d0: db6f 873a 918b 493e afa4 24bd 7672 5e39
000002e0: b72b 0dbc bd9d b0be 3782 773e 52d6 973e
000002f0: 15cb b6bd ba54 323d 4f87 c8bd b41a 3abd
00000300: cd37 063c 6688 823e 0097 c43d d437 05be
00000310: f5a6 973d 9a38 06bd 473d 853e 21cc 0cbd

resblock1.conv3.bias f4 [50]
0.04013321 0.004567198 0.030303126 -0.0060210465 -0.0024136533 -0.043279193 -0.0093238745 -0.027427437
-0.011156698 -0.0005931995 -0.032405805 -0.01643174 -0.017100181 0.01186352 -0.037627194 0.044070046
0.022973493 -0.012248016 0.01617014 0.037656527 -0.03388674 0.006825611 0.032658458 0.02258663
-0.0049280855 -0.028644348 -0.0023863197 -0.018764198 -0.007455192 -0.112915196 0.031436574 -0.016375931
0.026187474 -0.013103824 -0.035872974 0.022808166 -0.02677051 0.03847218 0.025659403 0.008295942
0.016715728 -0.02573377 -0.020698292 -0.0150814615 -0.024190856 0.00434034 -0.016700886 0.012850443
0.016106047 -0.012643342
00000000: b962 243d 6fa8 953b 433e f83c 334c c5bb
00000010: 622e 1ebb 8645 31bd 2ac3 18bc 81af e0bc
00000020: 95ca 36bc f280 1bba f3bb 04bd db9b 86bc
00000030: ae15 8cbc 365f 423c f91e 1abd cb82 343d
00000040: e832 bc3c e7ab 48bc 3e77 843c bb3d 1a3d
00000050: d3cc 0abd 60a9 df3b e0c4 053d 9907 b93c
00000060: c77b a1bb 8da7 eabc cd63 1cbb 60b7 99bc
00000070: af4a f4bb 1540 e7bd a3c3 003d d126 86bc
00000080: 1d87 d63c 6cb1 56bc 8aef 12bd 31d8 ba3c
00000090: d44d dbbc 0195 1d3d ab33 d23c b4eb 073c
000000a0: 6cef 883c a1cf d2bc 778f a9bc 3c18 77bc
000000b0: e72b c6bc 6939 8e3b 4cd0 88bc aa8a 523c
000000c0: d4f0 833c 0526 4fbc

resblock2.bn1.weight f4 [50]
0.45878917 0.4692951 0.44910067 0.4585032 0.43613937 0.41567227 0.44659516 0.6498488
0.45971462 0.43339646 0.37424257 0.64736176 -1.0434411e-07 0.64972425 0.45780703 0.3857756
0.35826957 0.4394648 0.46161777 0.5533314 0.4157071 0.38999075 0.61592686 0.42814532
0.41545323 0.53593916 0.38809127 0.58083224 0.4331417 0.6340537 0.35377666 0.50644773
0.44375587 0.38776368 0.4929058 0.42964888 0.34700704 0.3560225 0.45363495 0.43789726
0.44626522 0.6984851 0.6111014 0.3819479 0.42507184 0.40452394 0.5179421 0.38360202
0.41016534 0.34068838
00000000: 6ae6 ea3e 7347 f03e 86f0 e53e eec0 ea3e
00000010: a94d df3e ffd2 d43e 1fa8 e43e 7e5c 263f
00000020: b75f eb3e 24e6 dd3e b99c bf3e 80b9 253f
00000030: c813 e0b3 5454 263f af65 ea3e 6184 c53e
00000040: 1c6f b73e 8801 e13e 2a59 ec3e 20a7 0d3f
00000050: 90d7 d43e deac c73e 62ad 1d3f dd35 db3e
00000060: 49b6 d43e 4f33 093f e6b3 c63e 6cb1 143f
00000070: c0c4 dd3e 5851 223f 3722 b53e 8fa6 013f
00000080: f833 e33e f688 c63e 265e fc3e f0fa db3e
00000090: e8aa b13e 9548 b63e d742 e83e 1234 e03e
000000a0: e07c e43e ebcf 323f 2471 1c3f ad8e c33e
000000b0: 04a3 d93e c31d cf3e da97 043f 7c67 c43e
000000c0: 3101 d23e b56e ae3e

resblock2.bn1.bias f4 [50]
-0.3995316 -0.35024503 -0.47758082 -0.3110323 -0.24449098 -0.34598294 -0.29164562 -0.3292103
-0.26576647 -0.020999514 -0.2600211 -0.2601445 -5.4265314e-07 -0.28627807 -0.37068516 -0.21254848
-0.12563306 -0.18571775 -0.3174208 -0.16360095 -0.3307367 -0.28840643 -0.49797907 -0.29525957
-0.109226726 -0.3440667 -0.18094565 -0.36477768 -0.21428117 -0.4337887 -0.14553122 -0.42048237
-0.3085309 -0.109656595 -0.39910313 -0.15235612 -0.14728406 -0.12977405 -0.28817055 -0.3456966
-0.1975369 -1.026462 -0.2220881 -0.05787533 -0.191327 -0.27378234 -0.25623593 -0.19719075
-0.4673208 -0.12113739
00000000: 688f ccbe 5153 b3be 7985 f4be a03f 9fbe
00000010: d85b 7abe ad24 b1be 9352 95be 418e a8be
00000020: 8b12 88be 2c07 acbc 7c21 85be a931 85be
00000030: d7aa 11b5 0a93 92be 72ca bdbe 4fa6 59be
00000040: f4a5 00be cb2c 3ebe fb84 a2be 0287 27be
00000050: 5256 a9be 02aa 93be 1df7 febe 432c 97be
00000060: 43b2 dfbd 8329 b0be d149 39be 24c4 babe
00000070: 866c 5bbe 8d19 debe 2306 15be 7749 d7be
00000080: c3f7 9dbe a393 e0bd 3f57 ccbe 3e03 1cbe
00000090: a2d1 16be 7de3 04be 178b 93be 25ff b0be
000000a0: 1d47 4abe 1b63 83bf 106b 63be af0e 6dbd
000000b0: 3aeb 43be 332d 8cbe 5b31 83be 5fec 49be
000000c0: ac44 efbe e116 f8bd

resblock2.bn1.running_mean f4 [50]
-0.20126732 0.026052404 -0.060285803 0.009930341 0.0062499405 0.12916408 -0.003953221 -0.06811032
-0.048946407 -0.091307424 0.1694589 0.023665477 0.09695887 -0.08390762 0.16095029 -0.161406
-0.06252152 -0.09412058 -0.09687702 -0.15740106 0.07288419 -0.0047216974 0.113056675 -0.056289326
0.0177952 0.028195098 0.057713382 0.0009932995 0.02936321 0.3476586 -0.15278749 0.04584851
-0.08306722 -0.01927387 0.06888932 -0.10786008 0.115171365 -0.12606692 -0.046049252 -0.0023196568
-0.10196118 0.04328444 0.12978064 0.008199596 0.07404291 0.055719104 0.048288304 -0.049683154
0.01746574 0.065901645
00000000: 0519 4ebe da6b d53c 3fee 76bd deb2 223c
00000010: 4dcc cc3b 9743 043e 058a 81bb 6c7d 8bbd
00000020: 077c 48bd 63ff babd a286 2d3e 1ade c13c
00000030: 5f92 c63d c2d7 abbd 27d0 243e 9d47 25be
00000040: 480b 80bd 4ac2 c0bd 7667 c6bd be2d 21be
00000050: 4e44 953d 78b8 9abb 428a e73d a38f 66bd
00000060: 3dc7 913c 68f9 e63c de64 6c3d 9a31 823a
00000070: 1d8b f03c 4f00 b23e 5374 1cbe a6cb 3b3d
00000080: 261f aabd 3ce4 9dbc d815 8d3d bfe5 dcbd
00000090: f7de eb3d b017 01be 249e 3cbd 6205 18bb
000000a0: 06d1 d0bd 064b 313d 37e5 043e 9957 063c
000000b0: cfa3 973d b739 643d f5c9 453d 9080 4bbd
000000c0: 5014 8f3c 71f7 863d

resblock2.bn1.running_var f4 [50]
0.026723167 0.044153333 0.023168411 0.025410555 0.026941042 0.022606738 0.021270793 0.087620206
0.031945955 0.037715096 0.026184425 0.04928332 0.028541896 0.05847886 0.03500157 0.02134422
0.030653885 0.029842675 0.03236366 0.07520153 0.02119619 0.014684061 0.09920088 0.02280105
0.034084965 0.041132133 0.025590062 0.03378056 0.0251699 0.64395636 0.02088417 0.034898918
0.033490792 0.034709446 0.024788184 0.026899839 0.028943315 0.020732747 0.030236304 0.025847498
0.051341295 0.029757852 0.08073249 0.024397148 0.023519773 0.022999873 0.057174608 0.022843298
0.030512009 0.022997238
00000000: 8bea da3c 20da 343d aecb bd3c cc29 d03c
00000010: 76b3 dc3c c431 b93c 1640 ae3c 3972 b33d
00000020: c3d9 023d 257b 1a3d b880 d63c 4edd 493d
00000030: b2d0 e93c 8787 6f3d ce5d 0f3d 13da ae3c
00000040: db1d fb3c a078 f43c c28f 043d 4203 9a3d
00000050: a2a3 ad3c 6a95 703c d529 cb3d 45c9 ba3c
00000060: ad9c 0b3d 2b7a 283d 40a2 d13c 7c5d 0a3d
00000070: 1b31 ce3c 53da 243f 4715 ab3c 2bf2 0e3d
00000080: a42d 093d 7e2b 0e3d 9710 cb3c 0d5d dc3c
00000090: 881a ed3c b9d7 a93c 20b2 f73c 22be d33c
000000a0: 404b 523d bdc6 f33c 1357 a53d 87dc c73c
000000b0: 8aac c03c 3b6a bc3c ec2f 6a3d de21 bb3c
000000c0: 52f4 f93c b464 bc3c

resblock2.bn2.weight f4 [50]
0.26049292 0.15258639 0.15916173 0.14925686 0.18000703 0.13298018 0.14053655 0.15527564
0.15218842 0.20179035 0.20593442 0.18757385 0.1513526 0.19776879 0.19124931 0.14907746
0.15004203 0.1681592 0.1944945 0.16698281 0.2077129 0.1676547 0.15998687 0.15366906
0.1917946 0.19271831 0.18816641 0.17324622 0.16623318 0.15073402 0.1633327 0.15289025
0.14362821 0.27930146 0.19452403 0.17604731 0.1863947 0.16805829 0.13504365 0.20239475
0.21442659 0.18308622 0.19354275 0.16607153 0.15437613 0.14671165 0.24793243 0.16630416
0.20400783 0.23277506
00000000: 545f 853e 9b3f 1c3e 4bfb 223e cad6 183e
00000010: c353 383e f52b 083e d0e8 0f3e 9400 1f3e
00000020: 48d7 1b3e 21a2 4e3e 79e0 523e 5c13 403e
00000030: 2dfc 1a3e e783 4a3e dcd6 433e c3a7 183e
00000040: 9ea4 193e ed31 2c3e 9129 473e 8bfd 2a3e
00000050: b1b2 543e acad 2b3e 99d3 233e 6c5b 1d3e
00000060: ce65 443e f357 453e b2ae 403e 7567 313e
00000070: 0839 2a3e 055a 1a3e b040 273e 438f 1c3e
00000080: 4613 133e 9a00 8f3e 4f31 473e bf45 343e
00000090: 41de 3e3e 7917 2c3e e248 0a3e 9240 4f3e
000000a0: a592 5b3e f47a 3b3e 1230 463e a80e 2a3e
000000b0: c714 1e3e 943b 163e 00e2 7d3e a34b 2a3e
000000c0: 6ee7 503e 965c 6e3e

resblock2.bn2.bias f4 [50]
-0.5201704 -0.1600023 -0.19342172 -0.15616342 -0.26267007 -0.15199624 -0.17174047 -0.13333611
-0.1260748 -0.2464507 -0.3136656 -0.2608303 -0.17250726 -0.30112854 -0.30591214 -0.20782857
-0.16067475 -0.22237596 -0.19629443 -0.21490946 -0.26578134 -0.2563829 -0.15614782 -0.11022468
-0.28800905 -0.15550433 -0.26140332 -0.24036534 -0.15727781 -0.2223344 -0.14146835 -0.21592893
-0.17569539 -0.453279 -0.18404588 -0.15667814 -0.23466705 -0.25965214 -0.10230649 -0.18803498
-0.3216927 -0.18979518 -0.24839905 -0.15320626 -0.1823363 -0.19244972 -0.3292152 -0.16191752
-0.24675295 -0.32251585
00000000: e329 05bf a5d7 23be 5810 46be 4ee9 1fbe
00000010: b17c 86be e7a4 1bbe bcdc 2fbe 4389 08be
00000020: c119 01be 935d 7cbe c798 a0be 8d8b 85be
00000030: bea5 30be 852d 9abe 84a0 9cbe 03d1 54be
00000040: ec87 24be 86b6 63be 6801 49be 3a11 5cbe
00000050: 7e14 88be 9f44 83be 37e5 1fbe 7abd e1bd
00000060: ec75 93be 873c 1fbe a8d6 85be 5522 76be
00000070: 6f0d 21be a1ab 63be 14dd 10be 791c 5dbe
00000080: 7ee9 33be 2f14 e8be 8676 3cbe 3c70 20be
00000090: 8f4c 70be 20f1 84be 1186 d1bd 3e8c 40be
000000a0: e8b4 a4be ab59 42be 525c 7ebe 1ae2 1cbe
000000b0: 5eb6 3abe 8a11 45be e58e a8be b5cd 25be
000000c0: ceac 7cbe cc20 a5be

resblock2.bn2.running_mean f4 [50]
-0.5311349 -0.4540364 -0.38095838 0.10455468 -0.16134009 -0.5181635 0.004160428 -0.5802493
-0.5518448 -0.41905206 -0.18536325 -0.29353082 -0.17538317 -0.25590336 -0.36547226 -0.46156296
-0.20270576 -0.084801584 -0.41148615 -0.4474606 -0.554462 -0.2760017 -0.13793682 -0.4628259
-0.31590715 -0.76592064 -0.11684092 -0.28987148 -0.50536275 -0.13775876 -0.53786427 -0.44383755
-0.2549915 -0.50449574 -0.61365813 -0.5325011 -0.4441468 0.10118925 -0.38264346 -0.56587166
-0.42670286 -0.58154464 -0.35233977 -0.45430955 -0.4846932 -0.2761379 -0.57143116 -0.06956706
-0.76788133 -0.196028
00000000: 75f8 07bf 7677 e8be fa0c c3be c420 d63d
00000010: 5636 25be 5da6 04bf 3354 883b 388b 14bf
00000020: b345 0dbf fe8d d6be ddcf 3dbe ac49 96be
00000030: a597 33be c405 83be 2e1f bbbe fb51 ecbe
00000040: 1992 4fbe 74ac adbd 50ae d2be 8e19 e5be
00000050: 39f1 0dbf 1850 8dbe 4f3f 0dbe 84f7 ecbe
00000060: 95be a1be 6013 44bf 4b4a efbd 096a 94be
00000070: 745f 01bf a210 0dbe 79b1 09bf ad3e e3be
00000080: 3f8e 82be a226 01bf b318 1dbf fe51 08bf
00000090: 3667 e3be 4f3c cf3d d8e9 c3be f7dc 10bf
000000a0: cc78 dabe 1ce0 14bf e165 b4be 439b e8be
000000b0: b529 f8be f261 8dbe 5049 12bf 2d79 8ebd
000000c0: df93 44bf 90bb 48be

resblock2.bn2.running_var f4 [50]
0.5247892 0.4724891 0.3710372 0.3939727 0.5110548 0.32876313 0.36226323 0.5251744
0.4041156 0.42562017 0.3780518 0.32945976 0.36116266 0.31762192 0.38066298 0.38971835
0.41533074 0.46064043 0.58965456 0.36173025 0.5145085 0.48492616 0.5512608 0.52856416
0.44471252 0.4527007 0.32542473 0.3781852 0.53605896 0.32888302 0.3990629 0.3477999
0.35411307 0.43956774 0.5836274 0.62569326 0.6309618 0.32985818 0.43261254 0.6378752
0.39526585 0.48648077 0.5264485 0.47179887 0.37125286 0.36625874 0.62193966 0.58962375
0.43278804 0.5410285
00000000: 9658 063f 17ea f13e 96f8 bd3e cab6 c93e
00000010: 7dd4 023f a453 a83e 917a b93e d471 063f
00000020: 3de8 ce3e e3ea d93e 0190 c13e f3ae a83e
00000030: 50ea b83e 579f a23e 42e6 c23e 2a89 c73e
00000040: 3ba6 d43e 10d9 eb3e 9af3 163f b534 b93e
00000050: d4b6 033f 3e48 f83e 6e1f 0d3f fb4f 073f
00000060: 5cb1 e33e 63c8 e73e 129e a63e 7ea1 c13e
00000070: 293b 093f 5b63 a83e f951 cc3e d412 b23e
00000080: 4f4e b53e 060f e13e 9b68 153f 6f2d 203f
00000090: b686 213f 2ce3 a83e 647f dd3e ca4b 233f
000000a0: 4960 ca3e 0214 f93e 54c5 063f 9f8f f13e
000000b0: db14 be3e 4486 bb3e 7037 1f3f 95f1 163f
000000c0: 6596 dd3e d880 0a3f

resblock2.conv1.weight f4 [50, 50, 3, 3]
0.085510984 -0.1397623 -0.18170734 -0.029756328 -0.23446593 -0.21948 -0.1509935 -0.072207525
-0.013230924 0.018385654 -0.089342944 -0.036679547 -0.062154837 -0.02422566 0.057978664 -0.11041152
-0.06177732 -0.0586394 0.018249137 0.002833804 -0.13482268 -0.010106624 0.009430544 -0.123958305
-0.022705184 0.0038174712 0.02823647 -0.18352115 -0.09230587 0.25060388 0.044362646 0.14256127
-0.055842977 -0.20247127 -0.033806533 0.15394934 0.14450546 -0.39159808 0.21493861 -0.14886795
-0.009281291 0.033677854 0.04776178 -0.059587292 0.06171963 0.0139887445 -0.118895374 -0.12523805
-0.16733883 0.079363056 0.2140629 0.04163887 -0.04936104 -0.08874721 0.036163483 -0.09720643
0.11222903 -0.084191054 -0.10504538 -0.095263824 -0.050886065 0.0027001095 0.058408085 -0.08868601
-0.19045262 -0.062110957 -0.33884338 -0.0049388097 0.07759869 0.15673456 0.13179791 -0.0405711
-0.054285914 0.017547203 0.043806665 -0.07611181 0.007906902 -0.051766194 0.21183959 0.0046162005
-0.043706663 -0.06369465 0.032181654 -0.3393315 -0.08311456 -0.07482596 0.019853063 -0.061229087
-0.013760773 -0.17645304 0.22927083 0.05732223 -0.008873937 -0.09522725 -0.06805725 -0.09030579
-0.14319962 -0.052922476 -0.027609307 -0.22352663 0.07621584 0.11557405 -0.07619855 0.19233355
-0.038239248 0.058327883 0.03653302 -0.044209875 -4.7283617e-08 -2.0574396e-08 4.3309782e-08 -2.1515271e-08
-2.23529e-08 1.1894833e-08 5.8539175e-08 -2.5378046e-08 -4.4569546e-08 -0.01150441 -0.32999834 0.08998751
-0.01145932 0.13975692 -0.0131807085 0.06073498 -0.14973135 -0.1644052 -0.053026605 0.110343374
-0.023594495 -0.08759517 0.0061405203 -0.25158015 -0.29459506 -0.22158146 0.0382132 -0.22002685
-0.020932127 -0.11025444 0.19882844 0.06095701 0.06762274 -0.23073415 -0.031609442 0.022916203
0.25603747 -0.117228106 -0.15034945 0.043675806 -0.14291716 -0.062209006 0.3806335 -0.025075374
0.08230285 0.04499864 -0.040621273 -0.06960892 0.09283534 -0.115004145 0.021171015 0.02160055
-0.19712877 -0.25158712 0.160255 -0.10103266 -0.1221544 -0.21836387 -0.13782783 -0.113886826
-0.14520505 0.14749792 0.14465362 0.12644581 -0.09254069 -0.19942413 0.111676976 -0.3313683
-0.053681567 -0.36444804 -0.06322766 0.10393391 -0.014094209 0.15080403 0.20586015 0.082682885
0.034750007 0.32128367 -0.07876682 -0.15162204 0.18505263 -0.042538125 0.13713948 0.070528165
-0.09680142 0.02809312 -0.05780496 0.019637277 4.2779913e-05 -0.02026342 -0.08573637 0.3325828
-0.29536963 -0.0043868013 -0.1529338 -0.026725495 -0.16902527 -0.08793935 0.013602811 0.0034640252
-0.14413247 -0.26648405 0.04048026 0.015744694 -0.096051924 0.253131 -0.12467529 -0.0040561366
0.15252237 0.4939228 0.04871173 -0.112433776 -0.20743035 -0.088497005 0.20866127 0.16321345
-0.10874384 0.023604339 -0.09756719 0.047669817 0.2143406 0.03683076 -0.18287595 -0.012230981
-0.19481955 -0.17703842 -0.087149076 0.35538468 -0.009310909 -0.021022249 0.017181791 -0.16563745
0.003083998 -0.20249169 -0.12502104 0.02910646 0.04921111 -0.16825034 -0.10174014 -0.024637155
-0.064402334 -0.16638745 0.14386053 0.13499424 0.1925499 -0.0735383 0.035305846 -0.20995499
00000000: 6220 af3d d91d 0fbe 7d11 3abe 8bc3 f3bc
00000010: d617 70be 5dbf 60be 0a9e 1abe 8ae1 93bd
00000020: 84c6 58bc 839d 963c 6ff9 b6bd 4b3d 16bd
00000030: 1296 7ebd e474 c6bc 097b 6d3d 6f1f e2bd
00000040: 370a 7dbd de2f 70bd 377f 953c 58b7 393b
00000050: f50e 0abe 4196 25bc 9282 1a3c dadd fdbd
00000060: 3900 babc 8a2e 7a3b 2b50 e73c f8ec 3bbe
00000070: dc0a bdbd 274f 803e 9bb5 353d 95fb 113e
00000080: 9bbb 64bd a154 4fbe b878 0abd e5a4 1d3e
00000090: 3df9 133e 8b7f c8be de18 5c3e d770 18be
000000a0: 8e10 18bc caf1 093d dba1 433d ce11 74bd
000000b0: b9cd 7c3d 0c31 653c 6b7f f3bd 673e 00be
000000c0: df5a 2bbe 1989 a23d 4e33 5b3e 858d 2a3d
000000d0: cd2e 4abd 19c1 b5bd 2920 143d 2a14 c7bd
000000e0: 55d8 e53d 5c6c acbd 0822 d7bd ae19 c3bd
000000f0: e86d 50bd 52f4 303b 513d 6f3d 03a1 b5bd
00000100: 0306 43be 0f68 7ebd e17c adbe bdd5 a1bb
00000110: 10ec 9e3d 067f 203e 08f6 063e e22d 26bd
00000120: e85a 5ebd 27bf 8f3c 9e6e 333d 82e0 9bbd
00000130: f38b 013c ca08 54bd 7aec 583e 7f43 973b
00000140: c205 33bd 5772 82bd e9d0 033d dcbc adbe
00000150: f737 aabd 5a3e 99bd e4a2 a23c 5acb 7abd
00000160: de74 61bc 1bb0 34be f9c5 6a3e b7ca 6a3d
00000170: fd63 11bc 8106 c3bd 9961 8bbd 3ef2 b8bd
00000180: eca2 12be 3dc5 58bd ea2c e2bc 2ae4 64be
00000190: 0d17 9c3d 16b2 ec3d fc0d 9cbd 16f3 443e
000001a0: c2a0 1cbd 38e9 6e3d a6a3 153d 6a15 35bd
000001b0: e314 4bb3 93bb b0b2 9c03 3a33 95d0 b8b2
000001c0: 8c02 c0b2 075a 4c32 816c 7b33 eafe d9b2
000001d0: bc6c 3fb3 fe7c 3cbc 8bf5 a8be 5f4b b83d
000001e0: dfbf 3bbc 701c 0f3e e6f3 57bc 3ec5 783d
000001f0: 2d53 19be d659 28be 6d32 59bd b5fb e13d
00000200: 3e49 c1bc 1965 b3bd 6b36 c93b 1dcf 80be
00000210: 2ad5 96be 40e6 62be 7285 1c3d b84e 61be
00000220: da79 abbc 14cd e1bd af99 4b3e 0fae 793d
00000230: cb7d 8a3d 9345 6cbe e778 01bd c3ba bb3c
00000240: 5817 833e 4a15 f0bd 35f5 19be 67e5 323d
00000250: e058 12be dfce 7ebd 65e2 c23e df6a cdbc
00000260: 668e a83d 7e50 383d 7e62 26bd 1f8f 8ebd
00000270: 7420 be3d 4b87 ebbd d66e ad3c a3f3 b03c
00000280: 20dc 49be 07d0 80be e319 243e 36ea cebd
00000290: 162c fabd c79a 5fbe bd22 0dbe 7f3d e9bd
000002a0: a2b0 14be b209 173e 1420 143e 037b 013e
000002b0: f985 bdbd d735 4cbe e6b6 e43d 1ba9 a9be
000002c0: 34e1 5bbd ef98 babe 817d 81bd 4ddb d43d
000002d0: 66eb 66bc 5f6c 1a3e 01cd 523e a555 a93d
000002e0: 0656 0e3d 4b7f a43e 8050 a1bd cf42 1bbe
000002f0: 707e 3d3e 753c 2ebd 4b6e 0c3e 1271 903d
00000300: d33f c6bd 8b23 e63c e5c4 6cbd 5bde a03c
00000310: 956e 3338 79ff a5bc 8d96 afbd 4b48 aa3e
00000320: b03a 97be 28bf 8fbb ae9a 1cbe 6def dabc
00000330: f614 2dbe 8c19 b4bd 53de 5e3c b304 633b
00000340: 7697 13be 9970 88be a1ce 253d 04fb 803c
00000350: dfb6 c4bd 639a 813e c255 ffbd 57e9 84bb
00000360: d32e 1c3e 73e3 fc3e f385 473d ae43 e6bd
00000370: 9f68 54be eb3d b5bd 4dab 553e 6d21 273e
00000380: 17b5 debd e35d c13c 4fd1 c7bd 6d41 433d
00000390: 1a7c 5b3e dadb 163d d543 3bbe 7464 48bc
000003a0: c77e 47be 8f49 35be 377b b2bd fbf4 b53e
000003b0: c88c 18bc da36 acbc d4c0 8c3c dd9c 29be
000003c0: e71c 4a3b fb59 4fbe 8405 00be ac70 ee3c
000003d0: 9791 493d d149 2cbe 225d d0bd dcd3 c9bc
000003e0: 5fe5 83bd 7961 2abe 2d50 133e ee3b 0a3e
000003f0: cd2b 453e 409b 96bd dd9c 103d 71fe 56be

resblock2.conv1.bias f4 [50]
0.00014980063 -0.00019066359 -6.8959394e-05 -0.000112605514 0.00018204162 -3.8235936e-05 2.121991e-05 3.0186482e-05
3.9068964e-06 4.668739e-05 3.5996152e-05 4.7502832e-05 -0.00032813914 -1.8412436e-05 9.368318e-05 0.00012381785
1.3887333e-05 -6.586295e-05 4.9831895e-05 0.00012937754 0.00011016602 0.00014711455 0.00016696098 5.072872e-05
1.6901055e-05 -5.5754215e-05 2.0854397e-05 -4.862407e-05 0.00026408804 -1.7695924e-05 -5.3463064e-05 0.00011898382
0.00014722509 -7.003678e-05 -2.056263e-05 0.00014491938 2.263206e-06 -9.332541e-05 8.1162296e-05 5.3438343e-05
-6.565117e-05 -5.2080384e-05 0.00011124098 -0.00014504578 -0.0001484319 -5.157598e-05 0.0003766042 9.07209e-05
-0.00016417417 -3.8556544e-05
00000000: cd13 1d39 deec 47b9 4b9e 90b8 a026 ecb8
00000010: 6de2 3e39 865f 20b8 6901 b237 fa38 fd37
00000020: fc17 8336 34d2 4338 93fa 1638 c73d 4738
00000030: 170a acb9 6874 9ab7 c677 c438 1ad5 0139
00000040: a4fd 6837 e71f 8ab8 9702 5138 85a9 0739
00000050: ee08 e738 c342 1a39 3f12 2f39 8cc5 5438
00000060: bdc6 8d37 a2d9 69b8 7af0 ae37 b3f1 4bb8
00000070: 4c75 8a39 b571 94b7 873d 60b8 f486 f938
00000080: 6f60 1a39 b6e0 92b8 e97d acb7 80f5 1739
00000090: 95e1 1736 b3b7 c3b8 ad35 aa38 fc22 6038
000000a0: 34ae 89b8 e370 5ab8 0c4a e938 6e17 18b9
000000b0: 62a4 1bb9 4953 58b8 f672 c539 6a41 be38
000000c0: 2b26 2cb9 c6b7 21b8

resblock2.conv2.weight f4 [50, 50, 3, 3]
-0.004240021 0.0248704 0.17883834 -0.24949485 -0.024455711 0.13297471 -0.16051589 0.026932696
0.1317802 -0.0032688961 0.30415094 0.01878581 0.11869039 0.14172469 -0.05160574 0.31711513
-0.033073988 0.22742511 0.1654932 0.14889657 -0.12354164 -0.09610915 0.0068073277 -0.097416654
0.012563524 -0.012625113 -0.095660605 -0.13917375 -0.039199624 -0.06828215 -0.09184405 0.0023286778
-0.13746111 -0.08139063 -0.19447538 -0.25404704 0.05900288 -0.06799903 0.043283567 -0.061375085
0.1675969 -0.19181271 0.030154083 -0.09127838 -0.050915904 0.098341554 -0.042389445 -0.036537178
0.25764188 0.012347265 -0.07343711 -0.119241424 -0.027144795 -0.11011175 0.02541264 0.04866796
0.056082778 -0.14200808 -0.04525304 -0.06429975 -0.07421876 0.08456026 -0.14678892 -0.027365014
-0.027345765 0.07686459 0.023234637 -0.07364761 -0.007972079 0.17054097 0.026456267 -0.06803095
0.039606266 -0.003504253 0.16188632 -0.041283753 -0.0036267005 -0.0625844 0.22057891 -0.247912
-0.25291505 -0.07834725 -0.04439042 0.0017579806 -0.001502789 0.2026181 -0.18606146 -0.15359654
0.13371715 -0.013550519 -0.16028152 -0.18020917 0.018174348 -0.09918766 0.029233616 0.18608698
0.075364284 0.2478101 -0.037816513 -0.14715506 -0.17790872 0.24902125 -0.073507614 -0.07508015
0.040003486 -0.34789225 -0.086119205 0.13142079 -0.08712606 0.13784812 0.16776723 -0.033583175
-0.0057176375 -0.17735735 -0.060273338 -0.09302701 -0.08572398 -0.0690759 -0.13556273 -0.015585242
0.014842742 -0.15123874 -0.0008446068 -0.056580976 -0.0313176 0.15763767 -0.07725008 -0.019557666
0.11087796 0.059545863 -0.019455353 0.055984676 -0.004516166 -0.03754853 -0.07344768 0.088432774
0.14935759 -0.22616763 -0.019933352 0.0606152 0.030612288 0.061801292 -0.031918492 -0.07027481
0.015914183 -0.049536627 -0.0798147 -0.05622747 0.09476214 -0.14886384 -0.16913308 0.039534412
-0.07678611 0.12666765 0.13727851 -0.11100886 0.100124 -0.36481264 0.04649217 -0.04995461
0.111642286 0.1262214 0.06178076 -0.08180891 -0.012032406 -0.07340259 -0.17407164 0.009913778
0.11627299 0.23680753 0.12127842 -0.1464166 0.058877017 0.107388295 -0.023707071 -0.23179165
-0.010422291 -0.102618024 0.17720045 0.20979121 -0.04408978 0.020556897 -0.029858572 -0.06891061
-0.06331805 -0.18613523 0.040161982 -0.082435146 0.03326676 -0.15084189 -0.078719966 -0.11889459
0.011035345 -0.014288665 0.03845084 0.09069325 -0.13770574 0.008641508 -0.12896731 -0.23911262
-0.097987585 -0.11726507 0.07815756 0.018577486 -0.058137804 0.1227273 0.11743911 0.013747578
0.0033981185 0.251312 -0.15990153 -0.13744769 -0.034150165 -0.17191142 -0.020523084 0.0055150604
0.01947985 -0.086368546 -0.106024094 0.13892029 -0.026345393 -0.09112758 -0.070629194 0.24750535
0.022929268 0.05872857 -0.09808028 0.048138212 -0.013087954 -0.039387956 0.119290404 0.014211083
0.22232245 -0.07711304 0.039589204 -0.13641684 -0.005395817 0.06930605 -0.13805056 0.03760127
0.09780968 0.17255948 -0.13686146 -0.15736744 0.25905088 0.30439866 -0.049615394 -0.037980914
-0.20590968 -0.019316109 0.02061992 -0.07596591 -0.12806726 0.38657266 0.04060922 -0.110560715
00000000: e0ef 8abb 02bd cb3c 6621 373e 947b 7fbe
00000010: 5857 c8bc 862a 083e 475e 24be f5a1 dc3c
00000020: 64f1 063e fa3a 56bb acb9 9b3e b3e4 993c
00000030: f213 f33d 4720 113e 8a60 53bd ea5c a23e
00000040: 9778 07bd 21e2 683e 0d77 293e 5878 183e
00000050: 6603 fdbd e0d4 c4bd 0110 df3b 6282 c7bd
00000060: 3dd7 4d3c 90d9 4ebc b5e9 c3bd 9083 0ebe
00000070: c98f 20bd 83d7 8bbd bc18 bcbd bb9c 183b
00000080: 9bc2 0cbe 21b0 a6bd 8e24 47be 7412 82be
00000090: 01ad 713d 1343 8bbd 1c4a 313d 7164 7bbd
000000a0: 869e 2b3e 8d6a 44be b205 f73c 29f0 babd
000000b0: 328d 50bd 4c67 c93d 8ea0 2dbd 02a8 15bd
000000c0: a3e9 833e 2f4c 4a3c 3266 96bd d934 f4bd
000000d0: c35e debc 4582 e1bd 2b2e d03c 0e58 473d
000000e0: 0eb7 653d 916a 11be 405b 39bd 96af 83bd
000000f0: 0100 98bd ee2d ad3d d64f 16be 982c e0bc
00000100: 3a04 e0bc 2f6b 9d3d 9156 be3c 8fd4 96bd
00000110: 539d 02bc 4ba2 2e3e d0ba d83c d053 8bbd
00000120: 2e3a 223d 9ca7 65bb 87c5 253e 2719 29bd
00000130: f0ad 6dbb 402c 80bd 70df 613e a5dc 7dbe
00000140: 157e 81be 8674 a0bd bbd2 35bd 0a6c e63a
00000150: 3bf9 c4ba 1f7b 4f3e e586 3ebe 6948 1dbe
00000160: 26ed 083e ff02 5ebc d720 24be c188 38be
00000170: 5fe2 943c e622 cbbd 567b ef3c 968d 3e3e
00000180: 9758 9a3d eec1 7d3e 7de5 1abd d1af 16be
00000190: b42d 36be 6dff 7e3e 298b 96bd 9fc3 99bd
000001a0: b2da 233d ef1e b2be 445f b0bd 2c93 063e
000001b0: 266f b2bd 0f28 0d3e 2ccb 2b3e 838e 09bd
000001c0: 055b bbbb 2a9d 35be 2de1 76bd f284 bebd
000001d0: 0e90 afbd aa77 8dbd f5d0 0abe 3e59 7fbc
000001e0: f92e 733c 54de 1abe 9a68 5dba 74c1 67bd
000001f0: e246 00bd c56b 213e 4a35 9ebd 6637 a0bc
00000200: fc13 e33d 5de6 733d d560 9fbc 3050 653d
00000210: 59fc 93bb 7dcc 19bd bd6b 96bd 3e1c b53d
00000220: 32f1 183e 7d98 67be 454b a3bc a547 783d
00000230: 9fc6 fa3c 5a23 7d3d f7bc 02bd 3dec 8fbd
00000240: 765e 823c ebe6 4abd e475 a3bd c74e 66bd
00000250: a712 c23d c36f 18be 3931 2dbe d6ee 213d
00000260: 0942 9dbd 2ab5 013e bd92 0c3e 9d58 e3bd
00000270: d00d cd3d b9c8 babe 936e 3e3d 359d 4cbd
00000280: b6a4 e43d 2f40 013e d20d 7d3d 6e8b a7bd
00000290: 9223 45bc 1954 96bd d63f 32be 666d 223c
000002a0: 8920 ee3d ac7d 723e d260 f83d 3cee 15be
000002b0: 0729 713d 65ee db3d 5535 c2bc ca5a 6dbe
000002c0: 42c2 2abc 6629 d2bd 0974 353e 82d3 563e
000002d0: 7c97 34bd f066 a83c f799 f4bc 0221 8dbd
000002e0: e5ac 81bd 3c9a 3ebe e480 243d c2d3 a8bd
000002f0: ba42 083d 4c76 1abe ef37 a1bd 027f f3bd
00000300: 97cd 343c 011b 6abc a17e 1d3d 62bd b93d
00000310: bc02 0dbe 1d95 0d3c 0210 04be f0d9 74be
00000320: b7ad c8bd ab28 f0bd 1211 a03d d02f 983c
00000330: e821 6ebd 7358 fb3d eb83 f03d 853d 613c
00000340: f8b2 5e3b f7ab 803e 3abd 23be 16bf 0cbe
00000350: 0be1 0bbd 8c09 30be 0720 a8bc aeb7 b43b
00000360: 3594 9f3c fee1 b0bd 2923 d9bd 1f41 0e3e
00000370: 4bd2 d7bc 19a1 babd 0aa6 90bd 0b72 7d3e
00000380: 29d6 bb3c 5e8d 703d 50de c8bd 932c 453d
00000390: dc6e 56bc 4455 21bd 874e f43d 9ad5 683c
000003a0: 7fa8 633e 71ed 9dbd 4a28 223d dbb0 0bbe
000003b0: 65cf b0bb 55f0 8d3d 205d 0dbe ca03 1a3d
000003c0: 7150 c83d 6fb3 303e 6925 0cbe ee24 21be
000003d0: 51a2 843e 24da 9b3e 8339 4bbd e091 1bbd
000003e0: fdd9 52be d13c 9ebc 1beb a83c 0494 9bbd
000003f0: 1024 03be daec c53e da55 263d a86d e2bd
